…
log_probs/min                         -3.66433     0.47182     -3.33503     -5.53660
mean/mean                             -0.00196     0.00048     -0.00084     -0.00271
mean/std                              0.00304      0.00049     0.00421      0.00201
mean/max                              0.00084      0.00108     0.00319      -0.00078
mean/min                              -0.00706     0.00090     -0.00522     -0.00889
------------------------------------  -----------  ----------  -----------  --------
start to update mask
MaskGeneratorNet(
  (base): TrajectoryEncoder(
    (encoder_lstm): LSTM(19, 10, bidirectional=True)
    (encoder_mu): Linear(in_features=10, out_features=10, bias=True)
    (encoder_std): Linear(in_features=10, out_features=10, bias=True)
    (decoder): Linear(in_features=29, out_features=38, bias=True)
  )
  (em_base): MLPBase(
    (fc0): Linear(in_features=10, out_features=10, bias=True)
    (fc1): Linear(in_features=10, out_features=10, bias=True)
  )
  (gating_weight_fc_0): Linear(in_features=10, out_features=10, bias=True)
  (gating_weight_cond_last): Linear(in_features=10, out_features=10, bias=True)
  (gating_weight_last): Linear(in_features=10, out_features=10, bias=True)
)
inside gen task_probs_masks [tensor([0.0000, 0.1398, 0.7696, 0.9026, 0.4573, 0.4880, 0.3969, 0.5261, 0.9909,
        1.0000], grad_fn=<DivBackward0>), tensor([0.2780, 1.0000, 0.6932, 0.1786, 0.7869, 0.3578, 0.0000, 0.7847, 0.7438,
        0.4577], grad_fn=<SqueezeBackward1>)]
task_probs_masks [tensor([0.0000, 0.1398, 0.7696, 0.9026, 0.4573, 0.4880, 0.3969, 0.5261, 0.9909,
        1.0000], grad_fn=<DivBackward0>), tensor([0.2780, 1.0000, 0.6932, 0.1786, 0.7869, 0.3578, 0.0000, 0.7847, 0.7438,
        0.4577], grad_fn=<SqueezeBackward1>)]
MaskGeneratorNet(
  (base): TrajectoryEncoder(
    (encoder_lstm): LSTM(19, 10, bidirectional=True)
    (encoder_mu): Linear(in_features=10, out_features=10, bias=True)
    (encoder_std): Linear(in_features=10, out_features=10, bias=True)
    (decoder): Linear(in_features=29, out_features=38, bias=True)
  )
  (em_base): MLPBase(
    (fc0): Linear(in_features=10, out_features=10, bias=True)
    (fc1): Linear(in_features=10, out_features=10, bias=True)
  )
  (gating_weight_fc_0): Linear(in_features=10, out_features=10, bias=True)
  (gating_weight_cond_last): Linear(in_features=10, out_features=10, bias=True)
  (gating_weight_last): Linear(in_features=10, out_features=10, bias=True)
)
inside gen task_probs_masks [tensor([0.0000, 0.1437, 0.7735, 0.9001, 0.4506, 0.4966, 0.4127, 0.5273, 1.0000,
        0.9959], grad_fn=<DivBackward0>), tensor([0.2784, 1.0000, 0.6927, 0.1734, 0.7880, 0.3536, 0.0000, 0.7849, 0.7448,
        0.4590], grad_fn=<SqueezeBackward1>)]
task_probs_masks [tensor([0.0000, 0.1437, 0.7735, 0.9001, 0.4506, 0.4966, 0.4127, 0.5273, 1.0000,
        0.9959], grad_fn=<DivBackward0>), tensor([0.2784, 1.0000, 0.6927, 0.1734, 0.7880, 0.3536, 0.0000, 0.7849, 0.7448,
        0.4590], grad_fn=<SqueezeBackward1>)]
MaskGeneratorNet(
  (base): TrajectoryEncoder(
    (encoder_lstm): LSTM(19, 10, bidirectional=True)
    (encoder_mu): Linear(in_features=10, out_features=10, bias=True)
    (encoder_std): Linear(in_features=10, out_features=10, bias=True)
    (decoder): Linear(in_features=29, out_features=38, bias=True)
  )
  (em_base): MLPBase(
    (fc0): Linear(in_features=10, out_features=10, bias=True)
    (fc1): Linear(in_features=10, out_features=10, bias=True)
  )
  (gating_weight_fc_0): Linear(in_features=10, out_features=10, bias=True)
  (gating_weight_cond_last): Linear(in_features=10, out_features=10, bias=True)
  (gating_weight_last): Linear(in_features=10, out_features=10, bias=True)
)
inside gen task_probs_masks [tensor([0.0000, 0.1497, 0.7727, 0.9118, 0.4463, 0.4864, 0.4022, 0.5235, 0.9715,
        1.0000], grad_fn=<DivBackward0>), tensor([0.2696, 1.0000, 0.6908, 0.1794, 0.7898, 0.3520, 0.0000, 0.7825, 0.7441,
        0.4601], grad_fn=<SqueezeBackward1>)]
task_probs_masks [tensor([0.0000, 0.1497, 0.7727, 0.9118, 0.4463, 0.4864, 0.4022, 0.5235, 0.9715,
        1.0000], grad_fn=<DivBackward0>), tensor([0.2696, 1.0000, 0.6908, 0.1794, 0.7898, 0.3520, 0.0000, 0.7825, 0.7441,
        0.4601], grad_fn=<SqueezeBackward1>)]
MaskGeneratorNet(
  (base): TrajectoryEncoder(
    (encoder_lstm): LSTM(19, 10, bidirectional=True)
    (encoder_mu): Linear(in_features=10, out_features=10, bias=True)
    (encoder_std): Linear(in_features=10, out_features=10, bias=True)
    (decoder): Linear(in_features=29, out_features=38, bias=True)
  )
  (em_base): MLPBase(
    (fc0): Linear(in_features=10, out_features=10, bias=True)
    (fc1): Linear(in_features=10, out_features=10, bias=True)
  )
  (gating_weight_fc_0): Linear(in_features=10, out_features=10, bias=True)
  (gating_weight_cond_last): Linear(in_features=10, out_features=10, bias=True)
  (gating_weight_last): Linear(in_features=10, out_features=10, bias=True)
)
inside gen task_probs_masks [tensor([0.0000, 0.1547, 0.7639, 0.8881, 0.4577, 0.4765, 0.4072, 0.5212, 0.9701,
        1.0000], grad_fn=<DivBackward0>), tensor([0.2677, 1.0000, 0.6943, 0.1767, 0.7908, 0.3529, 0.0000, 0.7792, 0.7399,
        0.4625], grad_fn=<SqueezeBackward1>)]
task_probs_masks [tensor([0.0000, 0.1547, 0.7639, 0.8881, 0.4577, 0.4765, 0.4072, 0.5212, 0.9701,
        1.0000], grad_fn=<DivBackward0>), tensor([0.2677, 1.0000, 0.6943, 0.1767, 0.7908, 0.3529, 0.0000, 0.7792, 0.7399,
        0.4625], grad_fn=<SqueezeBackward1>)]
MaskGeneratorNet(
  (base): TrajectoryEncoder(
    (encoder_lstm): LSTM(19, 10, bidirectional=True)
    (encoder_mu): Linear(in_features=10, out_features=10, bias=True)
    (encoder_std): Linear(in_features=10, out_features=10, bias=True)
    (decoder): Linear(in_features=29, out_features=38, bias=True)
  )
  (em_base): MLPBase(
    (fc0): Linear(in_features=10, out_features=10, bias=True)
    (fc1): Linear(in_features=10, out_features=10, bias=True)
  )
  (gating_weight_fc_0): Linear(in_features=10, out_features=10, bias=True)
  (gating_weight_cond_last): Linear(in_features=10, out_features=10, bias=True)
  (gating_weight_last): Linear(in_features=10, out_features=10, bias=True)
)
inside gen task_probs_masks [tensor([0.0000, 0.1504, 0.7765, 0.9013, 0.4625, 0.4913, 0.4072, 0.5218, 1.0000,
        1.0000], grad_fn=<DivBackward0>), tensor([0.2764, 1.0000, 0.6954, 0.1750, 0.7867, 0.3544, 0.0000, 0.7842, 0.7426,
        0.4593], grad_fn=<SqueezeBackward1>)]
task_probs_masks [tensor([0.0000, 0.1504, 0.7765, 0.9013, 0.4625, 0.4913, 0.4072, 0.5218, 1.0000,
        1.0000], grad_fn=<DivBackward0>), tensor([0.2764, 1.0000, 0.6954, 0.1750, 0.7867, 0.3544, 0.0000, 0.7842, 0.7426,
        0.4593], grad_fn=<SqueezeBackward1>)]
MaskGeneratorNet(
  (base): TrajectoryEncoder(
    (encoder_lstm): LSTM(19, 10, bidirectional=True)
    (encoder_mu): Linear(in_features=10, out_features=10, bias=True)
    (encoder_std): Linear(in_features=10, out_features=10, bias=True)
    (decoder): Linear(in_features=29, out_features=38, bias=True)
  )
  (em_base): MLPBase(
    (fc0): Linear(in_features=10, out_features=10, bias=True)
    (fc1): Linear(in_features=10, out_features=10, bias=True)
  )
  (gating_weight_fc_0): Linear(in_features=10, out_features=10, bias=True)
  (gating_weight_cond_last): Linear(in_features=10, out_features=10, bias=True)
  (gating_weight_last): Linear(in_features=10, out_features=10, bias=True)
)
inside gen task_probs_masks [tensor([0.0000, 0.1674, 0.7736, 0.9136, 0.4670, 0.4942, 0.3965, 0.5238, 0.9747,
        1.0000], grad_fn=<DivBackward0>), tensor([0.2732, 1.0000, 0.6905, 0.1732, 0.7906, 0.3493, 0.0000, 0.7857, 0.7450,
        0.4625], grad_fn=<SqueezeBackward1>)]
task_probs_masks [tensor([0.0000, 0.1674, 0.7736, 0.9136, 0.4670, 0.4942, 0.3965, 0.5238, 0.9747,
        1.0000], grad_fn=<DivBackward0>), tensor([0.2732, 1.0000, 0.6905, 0.1732, 0.7906, 0.3493, 0.0000, 0.7857, 0.7450,
        0.4625], grad_fn=<SqueezeBackward1>)]
MaskGeneratorNet(
  (base): TrajectoryEncoder(
    (encoder_lstm): LSTM(19, 10, bidirectional=True)
    (encoder_mu): Linear(in_features=10, out_features=10, bias=True)
    (encoder_std): Linear(in_features=10, out_features=10, bias=True)
    (decoder): Linear(in_features=29, out_features=38, bias=True)
  )
  (em_base): MLPBase(
    (fc0): Linear(in_features=10, out_features=10, bias=True)
    (fc1): Linear(in_features=10, out_features=10, bias=True)
  )
  (gating_weight_fc_0): Linear(in_features=10, out_features=10, bias=True)
  (gating_weight_cond_last): Linear(in_features=10, out_features=10, bias=True)
  (gating_weight_last): Linear(in_features=10, out_features=10, bias=True)
)
inside gen task_probs_masks [tensor([0.0000, 0.1689, 0.7584, 0.8821, 0.4800, 0.5041, 0.4059, 0.5365, 1.0000,
        0.9967], grad_fn=<DivBackward0>), tensor([0.2755, 1.0000, 0.6933, 0.1702, 0.7917, 0.3537, 0.0000, 0.7808, 0.7410,
        0.4599], grad_fn=<SqueezeBackward1>)]
task_probs_masks [tensor([0.0000, 0.1689, 0.7584, 0.8821, 0.4800, 0.5041, 0.4059, 0.5365, 1.0000,
        0.9967], grad_fn=<DivBackward0>), tensor([0.2755, 1.0000, 0.6933, 0.1702, 0.7917, 0.3537, 0.0000, 0.7808, 0.7410,
        0.4599], grad_fn=<SqueezeBackward1>)]
MaskGeneratorNet(
  (base): TrajectoryEncoder(
    (encoder_lstm): LSTM(19, 10, bidirectional=True)
    (encoder_mu): Linear(in_features=10, out_features=10, bias=True)
    (encoder_std): Linear(in_features=10, out_features=10, bias=True)
    (decoder): Linear(in_features=29, out_features=38, bias=True)
  )
  (em_base): MLPBase(
    (fc0): Linear(in_features=10, out_features=10, bias=True)
    (fc1): Linear(in_features=10, out_features=10, bias=True)
  )
  (gating_weight_fc_0): Linear(in_features=10, out_features=10, bias=True)
  (gating_weight_cond_last): Linear(in_features=10, out_features=10, bias=True)
  (gating_weight_last): Linear(in_features=10, out_features=10, bias=True)
)
inside gen task_probs_masks [tensor([0.0000, 0.1872, 0.7707, 0.8915, 0.4862, 0.5181, 0.3996, 0.5411, 1.0000,
        0.9821], grad_fn=<DivBackward0>), tensor([0.2688, 1.0000, 0.6947, 0.1758, 0.7901, 0.3529, 0.0000, 0.7795, 0.7395,
        0.4615], grad_fn=<SqueezeBackward1>)]
task_probs_masks [tensor([0.0000, 0.1872, 0.7707, 0.8915, 0.4862, 0.5181, 0.3996, 0.5411, 1.0000,
        0.9821], grad_fn=<DivBackward0>), tensor([0.2688, 1.0000, 0.6947, 0.1758, 0.7901, 0.3529, 0.0000, 0.7795, 0.7395,
        0.4615], grad_fn=<SqueezeBackward1>)]
MaskGeneratorNet(
  (base): TrajectoryEncoder(
    (encoder_lstm): LSTM(19, 10, bidirectional=True)
    (encoder_mu): Linear(in_features=10, out_features=10, bias=True)
    (encoder_std): Linear(in_features=10, out_features=10, bias=True)
    (decoder): Linear(in_features=29, out_features=38, bias=True)
  )
  (em_base): MLPBase(
    (fc0): Linear(in_features=10, out_features=10, bias=True)
    (fc1): Linear(in_features=10, out_features=10, bias=True)
  )
  (gating_weight_fc_0): Linear(in_features=10, out_features=10, bias=True)
  (gating_weight_cond_last): Linear(in_features=10, out_features=10, bias=True)
  (gating_weight_last): Linear(in_features=10, out_features=10, bias=True)
)
inside gen task_probs_masks [tensor([0.0000, 0.1552, 0.7617, 0.8834, 0.4666, 0.4878, 0.4087, 0.5322, 0.9914,
        1.0000], grad_fn=<DivBackward0>), tensor([0.2768, 1.0000, 0.6938, 0.1709, 0.7911, 0.3545, 0.0000, 0.7825, 0.7422,
        0.4614], grad_fn=<SqueezeBackward1>)]
task_probs_masks [tensor([0.0000, 0.1552, 0.7617, 0.8834, 0.4666, 0.4878, 0.4087, 0.5322, 0.9914,
        1.0000], grad_fn=<DivBackward0>), tensor([0.2768, 1.0000, 0.6938, 0.1709, 0.7911, 0.3545, 0.0000, 0.7825, 0.7422,
        0.4614], grad_fn=<SqueezeBackward1>)]
MaskGeneratorNet(
  (base): TrajectoryEncoder(
    (encoder_lstm): LSTM(19, 10, bidirectional=True)
    (encoder_mu): Linear(in_features=10, out_features=10, bias=True)
    (encoder_std): Linear(in_features=10, out_features=10, bias=True)
    (decoder): Linear(in_features=29, out_features=38, bias=True)
  )
  (em_base): MLPBase(
    (fc0): Linear(in_features=10, out_features=10, bias=True)
    (fc1): Linear(in_features=10, out_features=10, bias=True)
  )
  (gating_weight_fc_0): Linear(in_features=10, out_features=10, bias=True)
  (gating_weight_cond_last): Linear(in_features=10, out_features=10, bias=True)
  (gating_weight_last): Linear(in_features=10, out_features=10, bias=True)
)
inside gen task_probs_masks [tensor([0.0000, 0.1729, 0.7571, 0.8813, 0.4808, 0.5042, 0.4079, 0.5455, 1.0000,
        0.9994], grad_fn=<DivBackward0>), tensor([0.2729, 1.0000, 0.6902, 0.1699, 0.7959, 0.3498, 0.0000, 0.7886, 0.7448,
        0.4717], grad_fn=<SqueezeBackward1>)]
task_probs_masks [tensor([0.0000, 0.1729, 0.7571, 0.8813, 0.4808, 0.5042, 0.4079, 0.5455, 1.0000,
…
